…
            "WARNING:tensorflow:From /usr/local/lib/python3.6/dist-packages/keras/backend/tensorflow_backend.py:3576: The name tf.log is deprecated. Please use tf.math.log instead.\n",
            "\n",
            "Model: \"model_1\"\n",
            "__________________________________________________________________________________________________\n",
            "Layer (type)                    Output Shape         Param #     Connected to                     \n",
            "==================================================================================================\n",
            "input_10 (InputLayer)           (None, 128, 176, 1)  0                                            \n",
            "__________________________________________________________________________________________________\n",
            "input_11 (InputLayer)           (None, 128, 176, 1)  0                                            \n",
            "__________________________________________________________________________________________________\n",
            "conv2d_1 (Conv2D)               (None, 128, 176, 32) 320         input_10[0][0]                   \n",
            "__________________________________________________________________________________________________\n",
            "conv2d_4 (Conv2D)               (None, 128, 176, 32) 320         input_11[0][0]                   \n",
            "__________________________________________________________________________________________________\n",
            "leaky_re_lu_1 (LeakyReLU)       (None, 128, 176, 32) 0           conv2d_1[0][0]                   \n",
            "__________________________________________________________________________________________________\n",
            "leaky_re_lu_4 (LeakyReLU)       (None, 128, 176, 32) 0           conv2d_4[0][0]                   \n",
            "__________________________________________________________________________________________________\n",
            "max_pooling2d_1 (MaxPooling2D)  (None, 64, 88, 32)   0           leaky_re_lu_1[0][0]              \n",
            "__________________________________________________________________________________________________\n",
            "max_pooling2d_4 (MaxPooling2D)  (None, 64, 88, 32)   0           leaky_re_lu_4[0][0]              \n",
            "__________________________________________________________________________________________________\n",
            "dropout_1 (Dropout)             (None, 64, 88, 32)   0           max_pooling2d_1[0][0]            \n",
            "__________________________________________________________________________________________________\n",
            "dropout_4 (Dropout)             (None, 64, 88, 32)   0           max_pooling2d_4[0][0]            \n",
            "__________________________________________________________________________________________________\n",
            "conv2d_2 (Conv2D)               (None, 64, 88, 64)   18496       dropout_1[0][0]                  \n",
            "__________________________________________________________________________________________________\n",
            "conv2d_5 (Conv2D)               (None, 64, 88, 64)   18496       dropout_4[0][0]                  \n",
            "__________________________________________________________________________________________________\n",
            "leaky_re_lu_2 (LeakyReLU)       (None, 64, 88, 64)   0           conv2d_2[0][0]                   \n",
            "__________________________________________________________________________________________________\n",
            "leaky_re_lu_5 (LeakyReLU)       (None, 64, 88, 64)   0           conv2d_5[0][0]                   \n",
            "__________________________________________________________________________________________________\n",
            "max_pooling2d_2 (MaxPooling2D)  (None, 32, 44, 64)   0           leaky_re_lu_2[0][0]              \n",
            "__________________________________________________________________________________________________\n",
            "max_pooling2d_5 (MaxPooling2D)  (None, 32, 44, 64)   0           leaky_re_lu_5[0][0]              \n",
            "__________________________________________________________________________________________________\n",
            "dropout_2 (Dropout)             (None, 32, 44, 64)   0           max_pooling2d_2[0][0]            \n",
            "__________________________________________________________________________________________________\n",
            "dropout_5 (Dropout)             (None, 32, 44, 64)   0           max_pooling2d_5[0][0]            \n",
            "__________________________________________________________________________________________________\n",
            "conv2d_3 (Conv2D)               (None, 32, 44, 128)  73856       dropout_2[0][0]                  \n",
            "__________________________________________________________________________________________________\n",
            "conv2d_6 (Conv2D)               (None, 32, 44, 128)  73856       dropout_5[0][0]                  \n",
            "__________________________________________________________________________________________________\n",
            "leaky_re_lu_3 (LeakyReLU)       (None, 32, 44, 128)  0           conv2d_3[0][0]                   \n",
            "__________________________________________________________________________________________________\n",
            "leaky_re_lu_6 (LeakyReLU)       (None, 32, 44, 128)  0           conv2d_6[0][0]                   \n",
            "__________________________________________________________________________________________________\n",
            "max_pooling2d_3 (MaxPooling2D)  (None, 16, 22, 128)  0           leaky_re_lu_3[0][0]              \n",
            "__________________________________________________________________________________________________\n",
            "max_pooling2d_6 (MaxPooling2D)  (None, 16, 22, 128)  0           leaky_re_lu_6[0][0]              \n",
            "__________________________________________________________________________________________________\n",
            "dropout_3 (Dropout)             (None, 16, 22, 128)  0           max_pooling2d_3[0][0]            \n",
            "__________________________________________________________________________________________________\n",
            "dropout_6 (Dropout)             (None, 16, 22, 128)  0           max_pooling2d_6[0][0]            \n",
            "__________________________________________________________________________________________________\n",
            "concatenate_1 (Concatenate)     (None, 16, 22, 256)  0           dropout_3[0][0]                  \n",
            "                                                                 dropout_6[0][0]                  \n",
            "__________________________________________________________________________________________________\n",
            "flatten_1 (Flatten)             (None, 90112)        0           concatenate_1[0][0]              \n",
            "__________________________________________________________________________________________________\n",
            "dense_1 (Dense)                 (None, 512)          46137856    flatten_1[0][0]                  \n",
            "__________________________________________________________________________________________________\n",
            "leaky_re_lu_7 (LeakyReLU)       (None, 512)          0           dense_1[0][0]                    \n",
            "__________________________________________________________________________________________________\n",
            "dropout_7 (Dropout)             (None, 512)          0           leaky_re_lu_7[0][0]              \n",
            "__________________________________________________________________________________________________\n",
            "dense_2 (Dense)                 (None, 11)           5643        dropout_7[0][0]                  \n",
            "==================================================================================================\n",
            "Total params: 46,328,843\n",
            "Trainable params: 46,328,843\n",
            "Non-trainable params: 0\n",
            "__________________________________________________________________________________________________\n",
…
